zs3/embeddings/context/pascalcontext_class_w2c.npy (npy, 144128 bytes, 1 tensors)

array f8 [60, 300]
000000 00 00 00 00 00 e0 bd 3f 00 00 00 00 00 00 c0 bf
       0.11669921875 -0.125
000010 00 00 00 00 00 80 c8 bf 00 00 00 00 00 60 c8 bf
       -0.19140625 -0.1904296875
000020 00 00 00 00 00 a0 c7 bf 00 00 00 00 00 40 ba 3f
       -0.1845703125 0.1025390625
000030 00 00 00 00 00 00 5a 3f 00 00 00 00 00 a0 b9 bf
       0.0015869140625 -0.10009765625
000040 00 00 00 00 00 40 b4 3f 00 00 00 00 00 00 ce bf
       0.0791015625 -0.234375
000050 00 00 00 00 00 60 cd 3f 00 00 00 00 00 c0 ab bf
       0.2294921875 -0.05419921875
000060 00 00 00 00 00 40 b2 bf 00 00 00 00 00 a0 c8 bf
       -0.0712890625 -0.1923828125
000070 00 00 00 00 00 c0 cf bf 00 00 00 00 00 c0 ce 3f
       -0.248046875 0.240234375
000080 00 00 00 00 00 40 af bf 00 00 00 00 00 40 c4 3f
       -0.06103515625 0.158203125
000090 00 00 00 00 00 c0 c4 bf 00 00 00 00 00 c0 e2 bf
       -0.162109375 -0.5859375
0000a0 00 00 00 00 00 80 c6 bf 00 00 00 00 00 40 bb 3f
       -0.17578125 0.1064453125
0000b0 00 00 00 00 00 c0 c9 bf 00 00 00 00 00 00 72 bf
       -0.201171875 -0.00439453125
0000c0 00 00 00 00 00 40 d5 bf 00 00 00 00 00 e0 b4 bf
       -0.33203125 -0.08154296875
0000d0 00 00 00 00 00 e0 a7 bf 00 00 00 00 00 80 b9 bf
       -0.046630859375 -0.099609375
0000e0 00 00 00 00 00 a0 d2 bf 00 00 00 00 00 e0 88 bf
       -0.291015625 -0.01214599609375
0000f0 00 00 00 00 00 60 a1 bf 00 00 00 00 00 20 b9 bf
       -0.033935546875 -0.09814453125
000100 00 00 00 00 00 20 90 bf 00 00 00 00 00 e0 b0 bf
       -0.0157470703125 -0.06591796875
000110 00 00 00 00 00 80 bf bf 00 00 00 00 00 40 b9 3f
       -0.123046875 0.0986328125
000120 00 00 00 00 00 e0 bb bf 00 00 00 00 00 e0 c7 3f
       -0.10888671875 0.1865234375
000130 00 00 00 00 00 c0 a3 3f 00 00 00 00 00 80 b7 bf
       0.03857421875 -0.091796875
000140 00 00 00 00 00 20 c5 3f 00 00 00 00 00 e0 c0 bf
       0.1650390625 -0.1318359375
000150 00 00 00 00 00 e0 c0 bf 00 00 00 00 00 60 b5 3f
       -0.1318359375 0.08349609375
000160 00 00 00 00 00 00 b7 bf 00 00 00 00 00 80 73 3f
       -0.08984375 0.0047607421875
000170 00 00 00 00 00 80 d9 bf 00 00 00 00 00 40 a9 bf
       -0.3984375 -0.04931640625
000180 00 00 00 00 00 60 90 bf 00 00 00 00 00 c0 d3 bf
       -0.0159912109375 -0.30859375
000190 00 00 00 00 00 c0 a2 bf 00 00 00 00 00 40 cd bf
       -0.03662109375 -0.228515625
0001a0 00 00 00 00 00 a0 b3 3f 00 00 00 00 00 60 c2 bf
       0.07666015625 -0.1435546875
0001b0 00 00 00 00 00 80 b3 3f 00 00 00 00 00 a0 bb 3f
       0.076171875 0.10791015625
0001c0 00 00 00 00 00 40 7c bf 00 00 00 00 00 c0 bd bf
       -0.00689697265625 -0.1162109375
0001d0 00 00 00 00 00 c0 b2 bf 00 00 00 00 00 20 d8 bf
       -0.0732421875 -0.376953125
0001e0 00 00 00 00 00 60 bc bf 00 00 00 00 00 e0 c4 bf
       -0.11083984375 -0.1630859375
0001f0 00 00 00 00 00 e0 b2 bf 00 00 00 00 00 80 b7 bf
       -0.07373046875 -0.091796875
000200 00 00 00 00 00 00 9b bf 00 00 00 00 00 20 cd 3f
       -0.0263671875 0.2275390625
000210 00 00 00 00 00 e0 ca bf 00 00 00 00 00 60 b6 3f
       -0.2099609375 0.08740234375
000220 00 00 00 00 00 40 ba 3f 00 00 00 00 00 80 ba bf
       0.1025390625 -0.103515625
000230 00 00 00 00 00 c0 90 bf 00 00 00 00 00 c0 b6 bf
       -0.016357421875 -0.0888671875
000240 00 00 00 00 00 40 c5 3f 00 00 00 00 00 40 b2 3f
       0.166015625 0.0712890625
000250 00 00 00 00 00 80 ae bf 00 00 00 00 00 a0 c0 3f
       -0.0595703125 0.1298828125
000260 00 00 00 00 00 a0 ca 3f 00 00 00 00 00 00 cf 3f
       0.2080078125 0.2421875
000270 00 00 00 00 00 a0 d1 3f 00 00 00 00 00 e0 b7 3f
       0.275390625 0.09326171875
000280 00 00 00 00 00 00 be 3f 00 00 00 00 00 60 c4 3f
       0.1171875 0.1591796875
000290 00 00 00 00 00 40 c3 3f 00 00 00 00 00 c0 a9 bf
       0.150390625 -0.05029296875
0002a0 00 00 00 00 00 20 c6 3f 00 00 00 00 00 00 cb bf
       0.1728515625 -0.2109375
0002b0 00 00 00 00 00 00 c4 bf 00 00 00 00 00 60 bf 3f
       -0.15625 0.12255859375
0002c0 00 00 00 00 00 c0 bc 3f 00 00 00 00 00 60 af bf
       0.1123046875 -0.061279296875
0002d0 00 00 00 00 00 60 a8 3f 00 00 00 00 00 80 bf bf
       0.047607421875 -0.123046875
0002e0 00 00 00 00 00 00 b9 bf 00 00 00 00 00 c0 ce 3f
       -0.09765625 0.240234375
0002f0 00 00 00 00 00 a0 ab bf 00 00 00 00 00 00 c4 bf
       -0.053955078125 -0.15625
000300 00 00 00 00 00 e0 9c 3f 00 00 00 00 00 e0 b6 3f
       0.0281982421875 0.08935546875
000310 00 00 00 00 00 40 c3 bf 00 00 00 00 00 e0 9d bf
       -0.150390625 -0.0291748046875
000320 00 00 00 00 00 40 d2 bf 00 00 00 00 00 60 91 3f
       -0.28515625 0.0169677734375
000330 00 00 00 00 00 c0 95 bf 00 00 00 00 00 20 c3 3f
       -0.021240234375 0.1494140625
000340 00 00 00 00 00 00 cb bf 00 00 00 00 00 e0 b0 bf
       -0.2109375 -0.06591796875
000350 00 00 00 00 00 60 96 bf 00 00 00 00 00 00 c7 3f
       -0.0218505859375 0.1796875
000360 00 00 00 00 00 c0 c9 3f 00 00 00 00 00 a0 d0 bf
       0.201171875 -0.259765625
000370 00 00 00 00 00 00 99 bf 00 00 00 00 00 80 d0 3f
       -0.0244140625 0.2578125
000380 00 00 00 00 00 a0 ad 3f 00 00 00 00 00 00 c6 bf
       0.057861328125 -0.171875
000390 00 00 00 00 00 a0 b1 3f 00 00 00 00 00 c0 98 bf
       0.06884765625 -0.024169921875
0003a0 00 00 00 00 00 a0 ba bf 00 00 00 00 00 80 ab 3f
       -0.10400390625 0.0537109375
0003b0 00 00 00 00 00 c0 90 bf 00 00 00 00 00 00 c1 3f
       -0.016357421875 0.1328125
0003c0 00 00 00 00 00 20 cd bf 00 00 00 00 00 80 cc bf
       -0.2275390625 -0.22265625
0003d0 00 00 00 00 00 a0 83 3f 00 00 00 00 00 60 c6 3f
       0.00958251953125 0.1748046875
0003e0 00 00 00 00 00 80 73 bf 00 00 00 00 00 a0 c3 3f
       -0.0047607421875 0.1533203125
0003f0 00 00 00 00 00 40 a3 bf 00 00 00 00 00 40 a8 bf
       -0.03759765625 -0.04736328125
000400 00 00 00 00 00 a0 ba 3f 00 00 00 00 00 60 8c 3f
       0.10400390625 0.01385498046875
000410 00 00 00 00 00 20 ad bf 00 00 00 00 00 60 d4 bf
       -0.056884765625 -0.318359375
000420 00 00 00 00 00 60 c3 bf 00 00 00 00 00 60 aa bf
       -0.1513671875 -0.051513671875
000430 00 00 00 00 00 00 b5 3f 00 00 00 00 00 c0 bb 3f
       0.08203125 0.1083984375
000440 00 00 00 00 00 e0 c3 3f 00 00 00 00 00 e0 9d 3f
       0.1552734375 0.0291748046875
000450 00 00 00 00 00 00 a2 bf 00 00 00 00 00 80 b4 bf
       -0.03515625 -0.080078125
000460 00 00 00 00 00 60 a6 bf 00 00 00 00 00 40 b0 bf
       -0.043701171875 -0.0634765625
000470 00 00 00 00 00 c0 be bf 00 00 00 00 00 00 d4 3f
       -0.1201171875 0.3125
000480 00 00 00 00 00 e0 a9 3f 00 00 00 00 00 c0 c1 3f
       0.050537109375 0.138671875
000490 00 00 00 00 00 a0 b7 3f 00 00 00 00 00 40 a5 3f
       0.09228515625 0.04150390625
0004a0 00 00 00 00 00 40 8e bf 00 00 00 00 00 a0 c4 3f
       -0.0147705078125 0.1611328125
0004b0 00 00 00 00 00 60 cc 3f 00 00 00 00 00 a0 c0 3f
       0.2216796875 0.1298828125
0004c0 00 00 00 00 00 e0 81 bf 00 00 00 00 00 a0 b1 bf
       -0.00872802734375 -0.06884765625
0004d0 00 00 00 00 00 e0 c8 bf 00 00 00 00 00 20 7b 3f
       -0.1943359375 0.006622314453125
0004e0 00 00 00 00 00 40 ca bf 00 00 00 00 00 a0 c4 bf
       -0.205078125 -0.1611328125
0004f0 00 00 00 00 00 80 b0 bf 00 00 00 00 00 80 bf bf
       -0.064453125 -0.123046875
000500 00 00 00 00 00 a0 b8 bf 00 00 00 00 00 40 b0 bf
       -0.09619140625 -0.0634765625
000510 00 00 00 00 00 00 a0 bf 00 00 00 00 00 20 a7 3f
       -0.03125 0.045166015625
000520 00 00 00 00 00 40 7a 3f 00 00 00 00 00 20 c2 bf
       0.00640869140625 -0.1416015625
000530 00 00 00 00 00 60 a4 3f 00 00 00 00 00 20 c8 bf
       0.039794921875 -0.1884765625
000540 00 00 00 00 00 20 b3 3f 00 00 00 00 00 a0 da 3f
       0.07470703125 0.416015625
000550 00 00 00 00 00 c0 9c bf 00 00 00 00 00 80 c9 3f
       -0.028076171875 0.19921875
000560 00 00 00 00 00 60 ca 3f 00 00 00 00 00 a0 d6 bf
       0.2060546875 -0.353515625
000570 00 00 00 00 00 20 c9 3f 00 00 00 00 00 80 b8 bf
       0.1962890625 -0.095703125
000580 00 00 00 00 00 40 a6 3f 00 00 00 00 00 c0 c4 bf
       0.04345703125 -0.162109375
000590 00 00 00 00 00 e0 b9 3f 00 00 00 00 00 c0 bb bf
       0.10107421875 -0.1083984375
0005a0 00 00 00 00 00 a0 c8 bf 00 00 00 00 00 60 c5 bf
       -0.1923828125 -0.1669921875
0005b0 00 00 00 00 00 a0 a4 bf 00 00 00 00 00 00 96 3f
       -0.040283203125 0.021484375
0005c0 00 00 00 00 00 60 bf bf 00 00 00 00 00 e0 ce bf
       -0.12255859375 -0.2412109375
0005d0 00 00 00 00 00 40 ac bf 00 00 00 00 00 20 d1 bf
       -0.05517578125 -0.267578125
0005e0 00 00 00 00 00 e0 68 bf 00 00 00 00 00 a0 ab 3f
       -0.0030364990234375 0.053955078125
0005f0 00 00 00 00 00 20 c0 3f 00 00 00 00 00 c0 b0 3f
       0.1259765625 0.0654296875
000600 00 00 00 00 00 00 a1 3f 00 00 00 00 00 40 c2 bf
       0.033203125 -0.142578125
000610 00 00 00 00 00 e0 d4 3f 00 00 00 00 00 00 cd 3f
       0.326171875 0.2265625
000620 00 00 00 00 00 40 b4 bf 00 00 00 00 00 e0 a0 bf
       -0.0791015625 -0.032958984375
000630 00 00 00 00 00 60 bc bf 00 00 00 00 00 40 b6 3f
       -0.11083984375 0.0869140625
000640 00 00 00 00 00 60 b5 bf 00 00 00 00 00 20 d1 3f
       -0.08349609375 0.267578125
000650 00 00 00 00 00 a0 d0 bf 00 00 00 00 00 00 d1 bf
       -0.259765625 -0.265625
000660 00 00 00 00 00 80 d3 3f 00 00 00 00 00 40 79 3f
       0.3046875 0.00616455078125
000670 00 00 00 00 00 60 b7 3f 00 00 00 00 00 60 a4 bf
       0.09130859375 -0.039794921875
000680 00 00 00 00 00 20 a6 3f 00 00 00 00 00 20 b6 3f
       0.043212890625 0.08642578125
000690 00 00 00 00 00 c0 ce bf 00 00 00 00 00 40 c5 bf
       -0.240234375 -0.166015625
0006a0 00 00 00 00 00 40 ae bf 00 00 00 00 00 e0 a9 3f
       -0.05908203125 0.050537109375
0006b0 00 00 00 00 00 c0 ae 3f 00 00 00 00 00 80 c0 3f
       0.06005859375 0.12890625
0006c0 00 00 00 00 00 c0 b7 bf 00 00 00 00 00 a0 d0 3f
       -0.0927734375 0.259765625
0006d0 00 00 00 00 00 20 9a bf 00 00 00 00 00 e0 d2 bf
       -0.0255126953125 -0.294921875
0006e0 00 00 00 00 00 e0 b1 bf 00 00 00 00 00 c0 cf 3f
       -0.06982421875 0.248046875
0006f0 00 00 00 00 00 e0 d3 bf 00 00 00 00 00 20 b5 bf
       -0.310546875 -0.08251953125
000700 00 00 00 00 00 c0 90 3f 00 00 00 00 00 c0 cc bf
       0.016357421875 -0.224609375
000710 00 00 00 00 00 a0 a9 3f 00 00 00 00 00 c0 c0 3f
       0.050048828125 0.130859375
000720 00 00 00 00 00 20 c5 bf 00 00 00 00 00 c0 90 3f
       -0.1650390625 0.016357421875
000730 00 00 00 00 00 60 a6 bf 00 00 00 00 00 20 cb bf
       -0.043701171875 -0.2119140625
000740 00 00 00 00 00 c0 b4 bf 00 00 00 00 00 40 a3 bf
       -0.0810546875 -0.03759765625
000750 00 00 00 00 00 40 9f 3f 00 00 00 00 00 60 92 bf
       0.030517578125 -0.0179443359375
000760 00 00 00 00 00 20 c8 3f 00 00 00 00 00 00 71 bf
       0.1884765625 -0.004150390625
000770 00 00 00 00 00 00 cd 3f 00 00 00 00 00 00 bc bf
       0.2265625 -0.109375
000780 00 00 00 00 00 80 cd bf 00 00 00 00 00 40 b4 3f
       -0.23046875 0.0791015625
000790 00 00 00 00 00 40 d5 bf 00 00 00 00 00 e0 c0 3f
       -0.33203125 0.1318359375
0007a0 00 00 00 00 00 a0 68 bf 00 00 00 00 00 a0 a5 bf
       -0.0030059814453125 -0.042236328125
0007b0 00 00 00 00 00 20 c1 bf 00 00 00 00 00 c0 ba bf
       -0.1337890625 -0.1044921875
0007c0 00 00 00 00 00 e0 c2 bf 00 00 00 00 00 20 c2 bf
       -0.1474609375 -0.1416015625
0007d0 00 00 00 00 00 40 ca 3f 00 00 00 00 00 20 7b 3f
       0.205078125 0.006622314453125
0007e0 00 00 00 00 00 c0 bc bf 00 00 00 00 00 e0 7f bf
       -0.1123046875 -0.007781982421875
0007f0 00 00 00 00 00 80 c1 bf 00 00 00 00 00 00 ba bf
       -0.13671875 -0.1015625
